classification/char-rnn-classification.pt (torch, 79888 bytes, 4 tensors)

weight f4 [128, 145]
000000 e8 21 8c bd 90 2d 6b 3d 6a 2a 1c 3d 80 c3 20 3b
       -0.068424046 0.0574165 0.038126387 0.002453059
000010 00 7b a6 bb d8 30 85 3d ec 96 97 3d 74 4d 84 bc
       -0.0050805807 0.06503457 0.07401833 -0.016150214
000020 a4 88 9f 3d b8 ab 5a bc 30 e0 7b 3d c0 28 53 3c
       0.07789734 -0.013346605 0.0614931 0.0128881335
000030 24 e6 eb 3c 78 6d 7f bc 26 81 1c bd a4 08 2f 3d
       0.028796263 -0.015590064 -0.038209103 0.04273285
000040 a8 dc a9 3d 98 23 2e bc 98 b0 75 bd c0 9d 7d bb
       0.0829404 -0.010628603 -0.059982866 -0.0038698763
000050 32 84 95 3d e0 da 68 3d c0 80 5d 3d 1a de 3f bd
       0.07300605 0.05684936 0.054077864 -0.046842672
000060 46 0f 07 3d c0 32 43 3b c2 2d f3 bc 30 a9 0b 3d
       0.03297355 0.0029784888 -0.029684905 0.034096897
000070 2a 48 9d 3d 60 4a 81 3d 7c 43 97 3d 0e f9 21 3d
       0.0767978 0.06313014 0.073859185 0.039544158
000080 cb 2b 96 bd 10 57 96 3c d0 70 a3 3d 74 35 86 3d
       -0.073325716 0.018352062 0.07980502 0.06553164
000090 05 1c 32 bd 48 08 82 bd a2 32 04 bd c8 32 62 3d
       -0.043483753 -0.06349236 -0.03227485 0.05522421
0000a0 5c 3f 53 3d 88 ee 48 3c d4 d3 00 3d 11 d4 1e bd
       0.051574096 0.0122639015 0.031452015 -0.03877646
0000b0 00 18 21 3b fb e1 42 bd bf 4e a8 bd 08 2a 91 3d
       0.0024580956 -0.047578793 -0.082181446 0.07088095
0000c0 62 51 0a 3d 04 55 24 3d 48 f4 8d 3d fa c4 c1 bc
       0.03376902 0.04012014 0.069313586 -0.023653496
0000d0 38 df 63 bd 1c df 2a 3d ac 45 86 3d 58 90 f4 bc
       -0.0556328 0.04171668 0.065562576 -0.029853985
0000e0 30 fd a8 3c 04 39 96 3d 3c 05 3c bd ec fa 21 3d
       0.020628542 0.073350936 -0.04590343 0.03954594
0000f0 9e 7c f4 bc 08 17 22 3c 74 f2 b3 3c 1c 2f 62 3d
       -0.029844578 0.009893186 0.021966197 0.05522071
000100 00 b3 60 3b 20 80 00 bb 00 22 a3 b9 70 32 58 3d
       0.003428638 -0.0019607618 -0.00031115115 0.052782476
000110 4b 8c 80 bd b0 38 a1 3c 18 5f 56 bd 04 76 f4 bc
       -0.06276759 0.019680351 -0.052336782 -0.02984143
000120 0e d0 8b bd b8 0e f5 3c 38 54 3f 3d ce 5e 9d bd
       -0.06826793 0.029914245 0.046711177 -0.07684098
000130 80 6f f3 3b 3c fa 0f 3d 78 60 6f 3c f4 42 a8 3d
       0.0074290633 0.03515075 0.014610402 0.08215895
000140 90 07 80 3d b8 98 2f bd c0 f2 bd 3a 40 9e d3 bb
       0.062514424 -0.042870253 0.0014491901 -0.006458074
000150 a0 80 27 3c 42 5e 8c 3d d8 35 96 3d ba da 85 bd
       0.010223538 0.06853916 0.07334489 -0.065358594
000160 6e b8 2a bd 18 b7 56 bc 88 0d ab bc 0c 87 42 3d
       -0.041679792 -0.013105176 -0.020880476 0.047492072
000170 cc d6 fa 3c f2 d5 48 bd 10 c2 5f bd 94 95 39 3d
       0.030620001 -0.04903216 -0.05462843 0.045308664
000180 68 f8 4e 3d 02 ee 8f 3d 0c c0 c9 3c 08 98 61 3c
       0.050529867 0.07027818 0.024627708 0.013769157
000190 20 b2 82 3d f2 d5 fa bc 9c c6 65 bd fe e9 9a bd
       0.06381631 -0.030619595 -0.05609761 -0.07564162
0001a0 5c 02 ad 3c 00 54 9e b8 58 c2 bf 3c 94 a1 a1 bc
       0.02111929 -7.549673e-05 0.0234081 -0.019730367
0001b0 3c 41 d1 3c c0 e7 97 3c e2 39 91 3d 51 ea 47 bd
       0.025543801 0.018543124 0.070911184 -0.048807446
0001c0 e4 48 96 bc 70 92 4c 3d a0 a3 b4 bb f6 de 2a bd
       -0.018345304 0.04994434 -0.0055126697 -0.04171654
0001d0 7c 25 35 3d 8c f5 a8 3c 76 6f 62 bd 46 7f a9 3d
       0.0442252 0.020624898 -0.05528208 0.082762286
0001e0 c4 f6 5e 3d c2 51 97 3d b8 65 d2 3c 58 60 20 bc
       0.054434553 0.07388641 0.025683269 -0.009788595
0001f0 eb a4 2e bd bb 91 1a bd e9 2a 83 bd 92 1c 02 3d
       -0.042637747 -0.037736636 -0.06404669 0.031765528
000200 ba c1 01 3d 90 69 8e 3d 60 23 98 3d 24 79 50 3d
       0.031678893 0.06953728 0.07428622 0.05089678
000210 00 dd 2e 3c ee b7 06 3d f8 41 13 3c 4d 61 8c bd
       0.010672808 0.032890253 0.008987896 -0.06854496
000220 aa 3f be bc c4 87 85 bc 64 05 6b 3d 1c 60 ff 3c
       -0.023223717 -0.01630009 0.057378188 0.031173758
000230 46 ff 9b bd ab 24 67 bd c8 6d 30 bc 08 9c 71 3c
       -0.07617049 -0.056431454 -0.010768361 0.014746673
000240 af 99 5a bd 60 84 6f 3d 80 24 0e 3c 34 46 42 3d
       -0.05336922 0.058475852 0.008675694 0.047430232
000250 bf 38 7b bd f8 36 8a 3d 80 7d 68 bc 00 80 62 3d
       -0.061333414 0.06748766 -0.014190078 0.05529785
000260 f8 42 b2 3c 82 f8 85 bd f0 80 aa 3b ab 94 55 bd
       0.021760449 -0.0654154 0.005203359 -0.052143734
000270 3a b6 0a bd 0c ee b8 3c c0 f4 67 3d d0 3b 2a 3c
       -0.03386519 0.022574447 0.056629896 0.010390237
000280 c8 a0 96 3c c8 0c 11 3c 37 55 63 bd 87 2b 52 bd
       0.018387213 0.008853145 -0.05550119 -0.051311042
000290 04 4a 94 bd 78 8f 98 bd 00 ac c2 3b f5 6f 96 bd
       -0.0724068 -0.074492395 0.005940914 -0.07345573
0002a0 30 be 35 bc e0 97 3e 3d 02 9c 0e bd 58 dc 37 bd
       -0.0110927075 0.046531558 -0.03481675 -0.04488787
0002b0 c0 77 02 bb ca dd 6f bd a0 1f 39 3d 20 04 39 bb
       -0.0019907802 -0.058561124 0.045196176 -0.0028231218
0002c0 00 a1 c6 bc a8 29 7f 3c 74 2a 26 3d 60 4c 2f 3d
       -0.024246693 0.0155738965 0.04056783 0.042797446
0002d0 a0 4a 03 bb ac b0 39 3d 40 fa 56 3b 90 8d a9 bd
       -0.0020033494 0.045334503 0.003280297 -0.08278954
0002e0 11 cf 3b bd 70 82 3e 3d a0 51 4e 3b 27 fc 84 bd
       -0.04585177 0.046511114 0.0031481758 -0.06493407
0002f0 a0 5f bd 3c ea 34 24 3d 5c 4c e2 3c 54 41 07 3d
       0.023116887 0.040089525 0.027624302 0.033021286
000300 9c 10 a3 3d c9 39 03 bd b0 33 fa 3c a6 69 9c 3d
       0.07962152 -0.03203753 0.030542225 0.07637338
000310 a0 3a 2d 3d 5a f2 a9 bd 28 99 ce 3c ed 13 7b bd
       0.042292237 -0.08298178 0.025219515 -0.0612983
000320 b2 42 13 3d 43 c9 47 bd fe 47 86 bd 40 75 ea bc
       0.035952277 -0.048775923 -0.065567 -0.028620362
000330 f8 a4 1f 3c bc f4 97 3d e8 71 a3 bd a9 1e 46 bd
       0.009743921 0.07419726 -0.0798071 -0.048369084
000340 90 c5 9e 3d 08 64 79 3c 0c 7b ab 3c 4d 05 25 bd
       0.07752526 0.015221603 0.020932697 -0.04028826
000350 64 21 68 3d fc cb 7c bd 80 1c 4e 3a 99 44 1b bd
       0.05667247 -0.061717972 0.0007862523 -0.037907217
000360 f4 2b c9 bc 98 4d f9 3c a0 88 58 3d 2c 37 b2 3c
       -0.024557091 0.030432507 0.05286467 0.021754824
000370 9f 69 9c bd 80 97 d3 ba 00 e4 14 39 00 cc ca b9
       -0.07637333 -0.0016143173 0.00014199317 -0.00038680434
000380 ce ef ed bc b9 44 91 bd 40 d1 90 3a 20 31 6e bb
       -0.029045012 -0.07093186 0.001104869 -0.0036345199
000390 28 76 60 bd 14 18 3e 3d 48 73 10 bd 00 c4 47 bd
       -0.054800183 0.04640968 -0.03526619 -0.048770905
0003a0 20 b3 bf 3c dc 4e 59 3d cc 60 77 3d 1d b0 2a bd
       0.023400843 0.05305372 0.060395047 -0.04167186
0003b0 f2 a1 5b bd 00 94 b8 ba 4c 78 8f bd 08 7a eb bc
       -0.05362124 -0.0014082193 -0.07005367 -0.028744712
0003c0 ee bd 04 bd 18 78 90 bc 28 3e 97 bd c0 de 5a bb
       -0.032407694 -0.01763539 -0.07384902 -0.003339693
0003d0 31 b9 87 bd 10 03 cd 3c b3 86 79 bd 2f 05 4b bd
       -0.06627119 0.025025874 -0.060919475 -0.04956549
0003e0 84 be e3 3c e8 74 86 bc b8 e0 65 bd 60 8e df 3b
       0.027800806 -0.016413167 -0.05612251 0.0068223923
0003f0 2d 54 2e bd ae 59 8f bd 28 d7 3d 3d 70 b0 54 bc
       -0.042560745 -0.06999527 0.046347767 -0.012981519

bias f4 [128]
000000 e4 0c dd bc 60 3b c7 bb a8 26 73 3d dc 3d ea 3c
       -0.026983686 -0.006080076 0.059363037 0.02859395
000010 ce 9b 94 bd 78 9b 00 bc 64 68 33 3d a8 09 d1 bc
       -0.0725628 -0.007849567 0.043800727 -0.0255173
000020 da 71 b5 bc b0 5a 56 bd 14 3e d8 bc 9a 69 a7 3d
       -0.022149015 -0.05233258 -0.026396789 0.08174439
000030 f4 81 84 3d d8 9f 5f 3d d4 30 8e 3d dc 02 8e 3d
       0.06470099 0.0545958 0.06942907 0.06934139
000040 40 7d 78 3d b0 96 11 3d c0 c6 ba 3b 00 b8 ff bb
       0.060666323 0.035544097 0.0056999624 -0.007803917
000050 1b 45 99 bd f4 8a a2 3c 74 57 60 bd 60 18 41 3d
       -0.07483884 0.019841649 -0.0547709 0.047142386
000060 fe e3 21 bd 94 84 b8 bc ac ab 9f 3d d4 28 e1 3c
       -0.03952407 -0.022524156 0.07796416 0.027485289
000070 80 b0 d1 bc b0 77 50 3c 00 19 0a 3d 10 af 99 bc
       -0.025596857 0.012723848 0.033715248 -0.018760234
000080 01 a9 8e bd 9a 41 84 bd a5 88 3c bd d0 09 e3 3c
       -0.06965829 -0.06457825 -0.046028752 0.02771464
000090 d4 a6 73 3d 9c 4c c9 bc 31 83 01 bd d5 7e 32 bd
       0.05948527 -0.024572663 -0.031619254 -0.043577988
0000a0 de b3 5c bd c0 b5 8c 3a 32 60 7b bd b4 77 66 3d
       -0.053882472 0.0010735318 -0.061371036 0.0562665
0000b0 28 e5 73 bd 48 89 06 bc 44 a4 f3 3c e6 5c 12 3d
       -0.059544712 -0.008211441 0.029741414 0.035733126
0000c0 06 c4 a5 bd 3c 2a 67 3d b2 eb 80 3d 72 ed 81 3d
       -0.08094029 0.056436762 0.06294955 0.06344117
0000d0 48 32 37 3c c6 38 f4 bc e4 63 09 3d e0 db be 3c
       0.011181422 -0.029812228 0.03354253 0.023298204
0000e0 a8 42 8d 3d fb 31 5f bd 82 0d 8f 3d 67 b5 0d bd
       0.06897479 -0.054491024 0.06984998 -0.034596827
0000f0 c0 8a 42 3d 42 f6 75 bd c8 2c fa 3c 30 d5 86 bb
       0.047495604 -0.060049303 0.030538931 -0.0041147694
000100 84 5c 36 bd 49 0d 96 bd a8 7e d2 3c 0e 6c 8f bd
       -0.044521824 -0.07326753 0.02569516 -0.07003032
000110 30 23 9d 3d 74 80 32 3d 3a 54 81 3d 84 20 25 bd
       0.07672727 0.043579534 0.06314893 -0.040314212
000120 40 e8 bf 3c 10 aa 6f bd 58 ee 92 bc 7e fa 66 bd
       0.023426175 -0.058511794 -0.017935917 -0.05639123
000130 e0 33 57 bc e8 5b 99 bd d8 6b 0a bc 78 97 82 3d
       -0.013134927 -0.07488233 -0.0084485635 0.063765466
000140 c0 0a c0 bb f8 76 50 bc 5d 62 95 bd d0 9d 7c 3d
       -0.0058606565 -0.012723677 -0.07294152 0.06167394
000150 f8 99 f8 3c ce 1b d4 bc 44 9c b9 3c a0 3d 87 3d
       0.030346856 -0.025892165 0.022657521 0.06603551
000160 50 35 7b bd a6 93 61 bd 18 65 50 bc c0 b1 b1 ba
       -0.06133014 -0.05507245 -0.012719415 -0.0013557002
000170 24 ea 8f 3d 18 12 7d 3c 51 a5 88 bd a4 07 78 3d
       0.07027081 0.015446208 -0.066721566 0.06055416
000180 a0 54 32 3c 2d d2 91 bd bb 31 86 bd 4c ba a2 bc
       0.010884434 -0.07120166 -0.06552454 -0.019864224
000190 f0 17 b3 3c 5c 38 86 3d f8 8f 1f 3d 80 5d 59 3c
       0.021862 0.065537184 0.03895566 0.013266921
0001a0 60 e5 da 3c fa b2 87 3d 7c 00 43 3d 08 59 8a bd
       0.026720703 0.06625934 0.047607884 -0.067552626
0001b0 7c b3 68 bd 72 45 75 bd 00 82 89 bb 7e e9 14 3d
       -0.056811795 -0.05988068 -0.0041964054 0.036355488
0001c0 90 11 e2 bc c8 71 a3 3d 90 b6 83 bd 1c 0f 9a 3c
       -0.027596265 0.079806864 -0.064313054 0.018806033
0001d0 d4 79 3d 3d 40 da 1d 3b 48 30 7b bc 8a 1a cc bc
       0.046258762 0.0024086386 -0.015331335 -0.024914999
0001e0 84 11 72 bd 60 93 7c bc 00 74 0f bb 40 c2 d4 3a
       -0.059098735 -0.015415996 -0.002188921 0.0016232207
0001f0 71 60 97 bd 02 98 8d 3d 9e 95 07 bd 50 d5 dc 3b
       -0.073914416 0.06913759 -0.03310167 0.006739296

weight f4 [3, 145]
000000 63 f8 56 41 2a f2 ba 3e ee a7 8d bf 06 8f fa 3f
       13.435641 0.36512882 -1.1066873 1.9574897
000010 9d 6a 9b 3f f3 98 54 41 80 71 20 c1 b6 1b d9 3d
       1.2141911 13.287341 -10.02771 0.106009886
000020 b3 2f cb bf ec ef 36 40 58 47 93 c0 02 fc 49 41
       -1.5873932 2.8583937 -4.602459 12.624025
000030 fa 6d 10 c1 c4 08 2a 41 37 a3 14 3e b7 f5 f0 c0
       -9.02685 10.62714 0.14515387 -7.5299945
000040 d6 36 30 41 ac 0b ec 3c f0 e7 8f 3d aa 14 91 3d
       11.013388 0.02881416 0.070266604 0.070840195
000050 a0 a4 60 bc 54 09 70 bd ce ed 89 3d 75 b5 05 bd
       -0.013711125 -0.058602646 0.06734811 -0.032643754
000060 d4 70 89 3d 40 fc 1d bd 20 49 60 3b f2 1d 08 bd
       0.067109734 -0.038570642 0.0034223273 -0.033231683
000070 96 f6 83 bd be 61 9d 3d 4b d1 33 bd bc fa 96 bd
       -0.06443517 0.076846585 -0.04390077 -0.073720425
000080 85 dd a2 bd 80 1c 2c ba 4c 94 6f 3d 22 e0 5c bd
       -0.07952408 -0.0006565526 0.058491036 -0.053924687
000090 4a ad a0 3d 20 95 7e bc 6f 81 4f bd d0 34 92 3d
       0.07845552 -0.015538484 -0.050660547 0.071389794
0000a0 2b 25 76 bd c4 3e 94 3d 1c 33 73 3d d8 21 17 3d
       -0.06009404 0.07238534 0.059374914 0.03689751
0000b0 3a ab 82 3d c0 8f b5 bb 58 ce 39 3d 77 ae 9c bd
       0.06380315 -0.005540818 0.0453628 -0.07650464
0000c0 cc c8 a9 bd 99 b0 3d bd 7a e1 b4 bc 28 b6 6b 3d
       -0.08290252 -0.046310995 -0.022080172 0.057546765
0000d0 cc 89 06 3d 93 8d 7d bd 22 11 62 bd 8c bf 69 3d
       0.032846257 -0.061902594 -0.05519212 0.05706744
0000e0 30 8a 12 3d c5 2f a6 bd fc c0 aa bc bc 86 fb 3c
       0.035776317 -0.0811458 -0.020843975 0.030703895
0000f0 00 e1 ff 39 a6 e2 64 bd 73 95 82 bd e4 0e 53 3d
       0.00048805028 -0.05588021 -0.063761614 0.051527873
000100 fc 1b 04 3d 24 47 6a 3d 40 b6 d6 bc 60 71 d1 bb
       0.03225325 0.05719675 -0.02620995 -0.006391689
000110 00 4e 36 3d 20 55 58 bc 92 d1 a2 bd a3 e8 a7 bd
       0.04450798 -0.013203889 -0.079501286 -0.08198669
000120 ec 09 28 3d b8 02 58 bd 06 4c 8b 3d 50 a1 a4 bd
       0.041025087 -0.052736968 0.0680161 -0.080385804
000130 68 c1 87 3c 00 d0 13 38 a0 c9 e2 3b 0e 95 e0 bc
       0.016571715 3.5241246e-05 0.006921008 -0.027414825
000140 85 6b a5 bd da 40 10 3d 40 33 ba 3b f0 61 8a bd
       -0.08077148 0.035218097 0.005682379 -0.06756961
000150 ba af 4c bd 40 40 71 3b 58 bc a0 3c 40 a0 de 3c
       -0.049972273 0.0036811978 0.01962106 0.027176023
000160 74 92 d3 bc 5c c3 9c 3d ca 76 37 bd 15 a6 22 bd
       -0.02582667 0.07654449 -0.04479102 -0.03970917
000170 cc 8a cf 3c a5 ca 90 bd 9c 1c 79 bd 24 8a b7 bc
       0.025334738 -0.070699014 -0.0608183 -0.022404738
000180 80 de b3 3a 64 87 d2 3c 88 31 89 3c 35 ea 02 bd
       0.0013722926 0.025699325 0.016747251 -0.03196164
000190 90 10 84 3c 44 ef 9d bd a4 b2 3f 3d 12 5b 85 3d
       0.016121179 -0.07711652 0.046801224 0.06511511
0001a0 bc 94 bc 3c 2d 3d 32 bd ee 9c 96 3d e4 7b b0 3c
       0.02302014 -0.043515373 0.07354151 0.02154345
0001b0 4a 70 80 bd 10 ed 33 3d f6 ba e2 bc 07 9a 07 bd
       -0.062714174 0.043927252 -0.02767704 -0.033105876
0001c0 30 48 c2 bc 50 a1 4a bc 28 50 e6 bc 74 1a 6b 3d
       -0.023716062 -0.012367561 -0.028114393 0.057398275
0001d0 e0 2d 6e bd c2 db 97 bd 70 21 d9 bb 88 01 93 3c
       -0.05814922 -0.07414962 -0.0066263005 0.017945066
0001e0 24 be 03 bd ce 53 0b 3d 94 d1 5b 3d fd bf 83 bd
       -0.032163754 0.03401547 0.053666666 -0.06433103
0001f0 18 b8 98 3d b8 ae 44 3d 90 f6 46 3c 70 16 5a 3d
       0.07456988 0.048018187 0.012143746 0.053244054
000200 00 31 73 3c 48 ec 39 bd 7a b7 a2 3d 84 1f b6 bc
       0.0148432255 -0.04539135 0.079451516 -0.022231825
000210 9e 04 03 3d 5a f4 7d bd 38 de 05 bc d0 0f 82 3c
       0.031986825 -0.06200061 -0.008170657 0.01587668
000220 50 aa 5c 3d 30 92 ae 3b 71 76 4f bd c0 ae 80 ba
       0.05387336 0.0053274855 -0.050650064 -0.0009817705
000230 88 9c 48 bd 10 bb 8d 3b 62 a4 8c bd d0 3d 83 3b
       -0.048977405 0.004325278 -0.06867291 0.0040051714
000240 aa 7f 10 bd 09 b2 7a c0 b2 36 7f c0 ce e1 fc c0
       -0.035278 -3.9171164 -3.9877133 -7.902564
000250 5c ed 24 c1 b2 e5 81 c1 27 f6 e9 c1 d2 c4 e6 41
       -10.307949 -16.237156 -29.245192 28.846104
000260 ab 9b 1e 40 84 ae 10 c0 e3 c0 4b c0 50 87 60 40
       2.4782512 -2.2606516 -3.1836479 3.5082588
000270 05 f1 1c c1 06 af 50 41 fa e2 92 41 76 a9 d7 40
       -9.808843 13.04273 18.360828 6.739436
000280 86 cd de be 87 87 45 41 b8 a9 15 bd 48 12 f9 3c
       -0.43516177 12.345588 -0.03653881 0.030404225
000290 66 18 46 bd 9b ad 9b bd f6 d2 8f bd 3c f2 0d 3d
       -0.048363112 -0.07601472 -0.070226595 0.03465484
0002a0 98 e7 19 3d 38 a1 24 3d ac bc 3e 3d d2 84 4e bd
       0.03757438 0.040192813 0.04656665 -0.050419636
0002b0 dc 54 8d 3d 80 f8 27 3a 7a 43 89 3d e9 7b 0e bd
       0.06900951 0.0006407574 0.06702323 -0.03478614
0002c0 54 6d 70 bd e4 1a 43 3d f8 9e 82 3c 00 a8 76 3b
       -0.058698013 0.047633067 0.015944943 0.0037636757
0002d0 68 cd 86 3d 34 11 a5 3c 76 9c 85 3d 40 3e 3c 3c
       0.06582147 0.020149805 0.06523983 0.011489451
0002e0 cc 35 ac 3c b4 5f 99 3d 0c a6 ed 3c cd 2a 43 bd
       0.021021746 0.07488957 0.029009841 -0.04764824
0002f0 88 65 35 3d 50 cd 6f bc 6c e5 92 bc 3c 43 55 bd
       0.04428628 -0.014636353 -0.017931662 -0.052066073
000300 8e b3 08 bd 50 7d a6 bc d0 b2 83 3d 2c f4 a6 bd
       -0.03337436 -0.020323426 0.0643059 -0.08152041
000310 86 d7 39 bd e6 6a 85 3d 8e 71 e5 bc 80 7e 8a 3d
       -0.045371555 0.0651453 -0.028008249 0.06762409
000320 f8 b5 8f bd d0 c4 e2 3c 68 3d 47 bc 04 ed b2 3c
       -0.0701713 0.027681738 -0.0121606365 0.021841533
000330 c0 eb 1d bc 98 84 c3 bc 20 e3 7e 3c ea 4f 92 bd
       -0.009638727 -0.023866937 0.0155570805 -0.07144149
000340 00 42 fe ba 70 78 77 bd aa d7 11 3d c6 50 b2 bc
       -0.0019398332 -0.060417593 0.035606064 -0.021767031
000350 28 07 f5 3c a9 9e 11 bd 3c 84 d6 bc e3 e2 89 bd
       0.029910639 -0.0355517 -0.026186101 -0.06732728
000360 0d a1 9f bd 38 44 6c 3d 58 2f 0d bd 3e a0 70 bd
       -0.0779439 0.057682246 -0.03446898 -0.05874657
000370 47 15 a3 bd 9c 27 bf 3c 64 85 a8 3d 1c a0 50 3d
       -0.07963043 0.023334317 0.08228567 0.050933942
000380 80 45 4f ba a4 1c a6 3d 40 c5 90 3c 44 37 58 bd
       -0.00079067796 0.081109315 0.017672181 -0.05278708
000390 37 9e 99 bd 60 51 f2 bb de e8 a7 bd 8a a0 88 bd
       -0.0750088 -0.0073949546 -0.08198713 -0.066712454
0003a0 20 d8 7d 3c 9c 66 0b 3d 26 2b e5 bc d2 b6 80 3d
       0.015493423 0.034033403 -0.027974676 0.0628487
0003b0 0c f8 8e bc 08 58 8d bd 00 ed 9e ba c4 01 70 3d
       -0.017452262 -0.06901556 -0.0012125075 0.058595434
0003c0 a0 47 48 bb 4c 6a ee 3c 18 0f 17 3d a4 b5 a2 3c
       -0.003056027 0.02910342 0.03687963 0.019862004
0003d0 7d 72 38 bd 8c cf 7a bd f8 1f 5d 3d a6 c7 7f bd
       -0.04503106 -0.06123309 0.053985566 -0.06244626
0003e0 ae 48 a1 3d 62 8e 84 bd 3b 16 4a bd 0d 81 54 bd
       0.07875191 -0.0647247 -0.049337607 -0.051880885
0003f0 08 55 6a 3d 56 2c 7d bd 2e d4 d8 bc 60 59 41 3b
       0.05721 -0.06180986 -0.026468363 0.0029502735

bias f4 [3]
000000 dd b8 55 41 ee 57 24 40 79 62 7e c1
       13.357633 2.5678668 -15.899041
